saved_models/digit_recog_cnn.pt (torch, 38845 bytes, 8 tensors)

conv1.weight f4 [8, 1, 3, 3]
-0.42349437 -1.0352086 -0.45198426 0.19627278 -0.33466828 0.09004837 1.1148452 0.76218116
0.67417 -0.39521435 -0.34403187 0.51508725 -0.049375694 -0.2616651 0.36245206 -0.21972322
-0.10658455 0.17733915 -0.013593037 -1.3149444 -0.6383842 -0.017045096 -0.20157965 -0.4057647
0.41169238 1.0532103 0.9873571 0.10840443 0.010330219 0.30253002 0.920646 0.9993341
0.47508535 0.7016709 0.6001122 0.4540018 0.944629 -0.21550818 -1.2320492 0.97041243
-0.14254579 -0.8603836 0.99967206 0.17822017 -0.33534396 0.45675588 0.76437014 0.7299119
0.71849436 0.64197284 0.12397833 0.37647787 -0.38320413 -0.85753894 0.11182658 -0.39603966
0.106089234 -0.32280573 -0.36162362 0.06303542 0.015571467 -0.14724611 0.46772298 -0.22058775
-0.29637748 -0.23568447 0.1076606 -0.27589417 0.13121185 -0.15332009 -0.1906181 0.06441028
00000000: 41d4 d8be b781 84bf 7b6a e7be bbfb 483e
00000010: a459 abbe 486b b83d 3fb3 8e3f 4e1e 433f
00000020: 6896 2c3f 8959 cabe f224 b0be c2dc 033f
00000030: 2b3e 4abd f8f8 85be 5193 b93e 20ff 60be
00000040: 0049 dabd 6598 353e 54b5 5ebc 1950 a8bf
00000050: 266d 23bf 28a2 8bbc e56a 4ebe 64c0 cfbe
00000060: 58c9 d23e 98cf 863f 6fc3 7c3f 2403 de3d
00000070: 1440 293c 37e5 9a3e 75af 6b3f 5cd4 7f3f
00000080: 633e f33e b4a0 333f f4a0 193f ed72 e83e
00000090: 35d3 713f 2dae 5cbe cab3 9dbf f36c 783f
000000a0: 86f7 11be 1a42 5cbf 82ea 7f3f 597f 363e
000000b0: 34b2 abbe e8db e93e c3ad 433f 82db 3a3f
000000c0: 3fef 373f 5558 243f 5ae8 fd3d b5c1 c03e
000000d0: 5533 c4be ac87 5bbf 5505 e53d b6c5 cabe
000000e0: 5045 d93d cb46 a5be bb26 b9be b718 813d
000000f0: 771f 7f3c afc7 16be 6379 ef3e c1e1 61be
00000100: cabe 97be 4557 71be 297d dc3d 0042 8dbe
00000110: 665c 063e f1ff 1cbe 6431 43be 89e9 833d

conv1.bias f4 [8]
-0.00023922801 -0.21985532 0.14464575 -0.015101348 0.021391913 0.0019117002 0.44787553 -0.1437889
00000000: 48d9 7ab9 c121 61be 041e 143e a56b 77bc
00000010: 183e af3c 0492 fa3a f14f e53e 663d 13be

conv2.weight f4 [16, 8, 3, 3]
-0.069531895 0.060241908 0.05520697 0.19044456 -0.1440298 -0.16235864 0.25008103 -0.02557727
-0.0018547862 0.19251233 0.09636894 -0.0277988 0.08621895 0.04816314 0.07921142 -0.056171622
0.053271968 0.15065813 0.15697274 -0.07249608 -0.23809081 0.21241303 -0.061368298 -0.10369294
0.054214325 -0.04342069 -0.23357543 -0.19989926 0.31116647 0.60538405 -0.32585457 -0.42278218
-0.41651055 0.30969024 0.15764895 -0.26160565 0.18874942 0.049313646 -0.031083155 0.05731488
0.22093143 -0.16122694 -0.021752048 0.21248762 0.11613617 -0.19510059 0.42851037 0.30412152
-0.27482766 -0.1471332 -0.1827054 -0.038261656 -0.15013048 -0.37582397 0.22547875 -0.019270206
-0.056064192 0.013940767 -0.0333963 -0.030045532 0.0037123377 -0.1186937 -0.12142586 0.051886424
0.06821985 0.0072586546 0.05857797 -0.024638476 0.044977725 0.08681277 -0.005152017 0.0023379591
-0.09187732 -0.44329694 -0.44392857 0.1154379 0.28635007 0.48636678 0.2887221 -0.027679544
0.12151896 -0.007528477 0.10532982 -0.08015655 -0.056684162 -0.11375485 -0.11083816 0.043469623
-0.16138688 -0.08872893 -0.1647877 -0.26245752 -0.21237619 -0.12283043 0.383817 0.4593543
0.16036975 -0.08314017 0.113548934 -0.23708037 -0.067818336 -0.13336818 -0.24341656 -0.38285616
0.11664042 0.46343207 0.23081337 -0.1436151 -0.18791163 0.15927093 -0.10158593 -0.106017694
-0.06734422 -0.21611367 0.014176639 -0.29131135 -0.0062854015 -0.19309905 0.4152395 0.28394365
0.016853627 -0.40128797 -0.31326172 0.33641776 0.46412358 0.26544243 -0.04376221 0.064074725
0.023252463 -0.17681943 0.15236309 -0.0012507531 0.013959266 0.046161283 -0.04234601 0.008632207
0.053221863 0.10811099 -0.041554935 0.104377076 0.03295818 -0.097533815 0.048329975 0.0017130416
-0.055902842 -0.08601911 -0.16254038 -0.32924032 -0.2546998 -0.19628507 -0.16754612 -0.2329691
-0.17308573 -0.13095252 -0.11512984 0.072312444 0.19986546 0.06784131 0.22504911 0.0832208
0.034385204 0.1491822 0.10930932 -0.21286257 -0.4624546 -0.18060446 -0.46783742 -0.410729
-0.21169804 -0.6361459 0.016763931 0.20022506 0.15780847 0.099052474 -0.12213789 -0.007388095
0.4036036 -0.09693578 0.28535363 0.4726543 -0.19157778 0.0045605917 0.32848564 -0.13502115
0.23170674 0.71943176 -0.16462155 0.28516775 0.5363387 0.060152385 -0.05798702 0.054596525
-0.33319327 -0.012835788 0.119610384 -0.059673145 0.056516673 0.13505356 0.0025022966 0.054714434
0.01011415 0.2195543 -0.07657164 -0.07995361 0.24147277 -0.18962081 -0.16351971 -0.062211182
-0.089176804 0.03687579 -0.04670452 0.09097787 0.050238546 0.001307984 0.04506214 -0.060830746
-0.124243245 -0.20195477 0.07938334 -0.14902942 -0.027965568 0.10881754 0.05370535 -0.037648074
-0.02955616 -0.12566952 -0.011149916 -0.02654556 -0.09776815 0.052736 0.027770821 0.12994249
-0.07933869 0.12426222 -0.07724368 -0.07892501 0.11694946 -0.06431289 0.06518098 0.066653095
-0.014865586 -0.06018989 -0.19871838 0.009569909 -0.027716804 -0.053565793 -0.30293003 -0.34134075
0.28856438 -0.18548985 0.101816416 0.12765764 -0.22860123 -0.020153005 0.09186847 0.108159035
00000000: bd66 8ebd 38c0 763d b420 623d e603 433e
00000010: 8c7c 13be 5841 26be 9f0a 803e 6c87 d1bc
00000020: 4c1c f3ba f421 453e 145d c53d 4fba e3bc
00000030: 9093 b03d b646 453d 9939 a23d 3714 66bd
00000040: b533 5a3d 2046 1a3e 76bd 203e d378 94bd
00000050: 14ce 73be cd82 593e 535d 7bbd f75c d4bd
00000060: d70f 5e3d e5d9 31bd 662e 6fbe 64b2 4cbe
00000070: 3651 9f3e 73fa 1a3f 69d6 a6be e876 d8be
00000080: df40 d5be b88f 9e3e ba6e 213e 2df1 85be
00000090: 8747 413e 1bfd 493d 1aa2 febc 02c3 6a3d
000000a0: d93b 623e ad18 25be 5a31 b2bc 5b96 593e
000000b0: cdd8 ed3d 73c8 47be b665 db3e d1b5 9b3e
000000c0: 36b6 8cbe 16aa 16be 2017 3bbe 41b8 1cbd
000000d0: cebb 19be 006c c0be e7e3 663e 8ddc 9dbc
000000e0: 91a3 65bd d167 643c 8fca 08bd 0c22 f6bc
000000f0: b14a 733b af15 f3bd 1fae f8bd dc86 543d
00000100: d9b6 8b3d 02da ed3b 74ef 6f3d a1d6 c9bc
00000110: 903a 383d e5ca b13d 40d2 a8bb 7238 193b
00000120: 2d2a bcbd d1f7 e2be 9b4a e3be b56a ec3d
00000130: 7a9c 923e 1105 f93e 62d3 933e 36c0 e2bc
00000140: efde f83d 71b1 f6bb 29b7 d73d 1e29 a4bd
00000150: a72d 68bd 4ef8 e8bd 1eff e2bd 340d 323d
00000160: 9a42 25be 83b7 b5bd 1bbe 28be d560 86be
00000170: 2579 59be 858e fbbd a983 c43e 7d30 eb3e
00000180: f837 243e 6545 aabd 588c e83d 32c5 72be
00000190: 57e4 8abd ab91 08be 3142 79be b905 c4be
000001a0: 2ce1 ee3d f846 ed3e 575a 6c3e d60f 13be
000001b0: e86b 40be eb17 233e 490c d0bd ce1f d9bd
000001c0: c4eb 89bd e74c 5dbe 2245 683c c326 95be
000001d0: c5f5 cdbb c2bb 45be 469a d43e 1061 913e
000001e0: 9e10 8a3c 9e75 cdbe d763 a0be f33e ac3e
000001f0: 9ba1 ed3e 12e8 873e 0140 33bd 9c39 833d
00000200: f37b be3c 2710 35be 1205 1c3e 4ff0 a3ba
00000210: 68b5 643c 9d13 3d3d 0373 2dbd 1a6e 0d3c
00000220: 2bff 593d 4b69 dd3d 8235 2abd a6c3 d53d
00000230: 28ff 063d cfbf c7bd a7f5 453d 2388 e03a
00000240: 61fa 64bd ca2a b0bd fc70 26be 3092 a8be
00000250: 0368 82be f4fe 48be 3691 2bbe 748f 6ebe
00000260: 633d 31be 6b18 06be 32c9 ebbd 8c18 943d
00000270: 88a9 4c3e 62f0 8a3d 4673 663e ab6f aa3d
00000280: 80d7 0c3d 38c3 183e 91dd df3d a5f8 59be
00000290: d9c6 ecbe 60f0 38be 6388 efbe 124b d2be
000002a0: 5fc7 58be 75da 22bf 8354 893c cc07 4d3e
000002b0: 8b98 213e 06dc ca3d 6e23 fabd d517 f2bb
000002c0: 22a5 ce3e 4486 c6bd df19 923e bfff f13e
000002d0: f72c 44be 0471 953b 452f a83e fc42 0abe
000002e0: 8844 6d3e ae2c 383f 8d92 28be 8201 923e
000002f0: 7e4d 093f 5962 763d cc83 6dbd 9ba0 5f3d
00000300: 4f98 aabe 324d 52bc 4af6 f43d d46b 74bd
00000310: 077e 673d 7b4b 0a3e 92fd 233b 3e1c 603d
00000320: d2b5 253c d8d2 603e 98d1 9cbd b8be a3bd
00000330: a344 773e f52b 42be b671 27be 27d1 7ebd
00000340: 54a2 b6bd 120b 173d 3d4d 3fbd 9b52 ba3d
00000350: efc6 4d3d a970 ab3a 1493 383d a929 79bd
00000360: 3e73 febd 3bcd 4ebe bc93 a23d 2b9b 18be
00000370: 0c18 e5bc bbdb de3d 24fa 5b3d de34 1abd
00000380: c31f f2bc 83af 00be 23ae 36bc 1376 d9bc
00000390: ab3a c8bd b401 583d a27f e33c a50f 053e
000003a0: 537c a2bd 317d fe3d ef31 9ebd 70a3 a1bd
000003b0: 3383 ef3d 7ab6 83bd 9b7d 853d 6b81 883d
000003c0: c98e 73bc ad89 76bd d57c 4bbe 1ccb 1c3c
000003d0: 5a0e e3bc ce67 5bbd a519 9bbe 37c4 aebe
000003e0: b6be 933e 0df1 3dbe 2085 d03d afb8 023e
000003f0: 7116 6abe ea17 a5bc 8925 bc3d 7c82 dd3d

conv2.bias f4 [16]
0.10057209 -0.04972492 0.23445906 0.0024251223 -0.06264535 0.02192424 -0.094087064 0.11854738
-0.06046954 0.16524698 0.015731243 -0.07265534 0.0063868864 -0.049400352 -0.15121135 -0.014831288
00000000: bdf8 cd3d 5cac 4bbd 0916 703e cdee 1e3b
00000010: 354c 80bd 779a b33c b8b0 c0bd f8c8 f23d
00000020: e9ae 77bd 8136 293e cfde 803c 53cc 94bd
00000030: 1649 d13b 0658 4abd 26d7 1abe eefe 72bc

conv3.weight f4 [32, 16, 3, 3]
0.07654339 0.10318878 0.09398069 0.1394803 -0.12284625 -0.2724946 0.024009615 0.057942685
0.039004255 0.13343659 0.19937408 0.27102676 -0.025608454 -0.2540796 -0.014333166 -0.0738462
0.02072061 -0.027809767 -0.04554899 0.055797603 0.07033615 0.06992514 -0.3024967 0.48214033
-0.16191661 0.113981016 -0.08700311 -0.12588719 -0.034603044 -0.11969141 -0.020304693 0.15151966
0.087852046 0.06286145 0.003258824 0.018045941 0.08826587 0.2109197 0.19344257 -0.079066955
-0.2763687 0.024562983 0.026904888 -0.04812767 -0.1725463 -0.10040648 -0.0345045 0.1542377
0.07910981 0.014380848 -0.19431113 -0.090471484 0.06272893 0.28611383 -0.013642003 0.063024245
0.13962723 -0.08598987 0.011828181 -0.021366775 0.05092495 -0.046011183 0.049894016 -0.008382504
0.13692325 0.13247809 0.26868922 0.053630892 -0.38751942 -0.05617667 0.004090001 0.23039156
-0.043550458 -0.045919243 -0.0865037 0.19664402 -0.13488382 -0.06966212 0.12571253 0.099410415
-0.032807983 0.10665258 -0.31443477 -0.27948818 0.18457894 -0.0496447 -0.037169162 0.1733095
0.016973611 -0.15474811 -0.05106793 -0.039658587 0.05256194 0.041453872 -0.04469934 -0.040913038
0.049445014 0.039827548 0.014205009 -0.08089551 0.171147 0.030713443 0.056366142 0.053617377
0.0052676625 -0.15855357 -0.030810917 -0.10177519 0.071631074 -0.15176937 -0.41569084 0.18811058
-0.23306608 0.20656385 0.26800433 0.2640808 -0.078688204 0.0016137345 -0.09188419 -0.079708524
-0.0704998 -0.051453866 -0.28230762 -0.076662004 -0.28606457 -0.07587959 -0.23170733 -0.33994034
-0.14810513 0.42758834 -0.21079803 0.2476315 0.17162731 -0.108807735 -0.0691085 0.08613279
-0.05365326 0.08346449 0.05079418 -0.37374172 -0.3203874 0.0934169 0.12959976 0.16361745
0.13298067 0.065652594 -0.15851739 -0.005437857 -0.08276122 -0.1245422 -0.09107758 -0.17211999
0.13454324 -0.04080989 -0.16651581 -0.17660545 -0.011282481 0.014238376 -0.30793482 -0.28885043
0.090189815 -0.0007028454 0.05736102 -0.098002136 -0.019427452 0.4710185 0.27003682 0.1597176
0.5564572 0.20447822 0.101687305 -0.16022879 -0.05541536 -0.041408893 0.09234233 0.02841281
0.09302866 0.083286405 -0.203917 -0.038308278 0.13198276 0.02382672 0.04813531 -0.10539492
-0.04723628 -0.11021892 0.21834458 0.25876677 0.08458062 0.16079639 -0.06751834 -0.108436935
0.0008962046 -0.17521945 -0.057038955 0.07193618 -0.2505993 0.058330264 0.007972385 0.12227398
0.007471065 0.109454714 0.17946152 0.0036077732 0.049856223 0.055542804 0.09619721 -0.1376611
-0.00497123 -0.012772314 -0.42485076 -0.26530465 -0.115971506 0.14143756 -0.24366702 -0.2463599
0.052919395 -0.22774526 -0.21763012 -0.23087545 -0.14772967 -0.07998623 0.08628373 -0.26018193
-0.037246168 0.11671806 -0.14240298 0.2045572 -0.06989341 0.07557069 0.13976476 0.080205806
0.12277728 0.03228806 -0.071007825 -0.0067831776 -0.07020554 0.037573464 -0.07626688 0.049548924
0.016921898 -0.077355586 -0.019523323 -0.0022118296 0.1191583 -0.15083641 -0.1631673 -0.4969265
-0.06995847 -0.07817953 -0.26450428 0.07735177 0.16655014 0.005446879 -0.104295515 0.09497327
00000000: c8c2 9c3d a454 d33d f378 c03d ecd3 0e3e
00000010: d196 fbbd 6a84 8bbe d0af c43c 4f55 6d3d
00000020: edc2 1f3d 9aa3 083e b828 4c3e 05c4 8a3e
00000030: d2c8 d1bc b916 82be a8d5 6abc ad3c 97bd
00000040: 45be a93c 4fd1 e3bc 9491 3abd 078c 643d
00000050: 660c 903d e934 8f3d d9e0 9abe 19db f63e
00000060: 78cd 25be e16e e93d b02e b2bd 92e8 00be
00000070: ecbb 0dbd c520 f5bd 0756 a6bc f827 1b3e
00000080: c6eb b33d 81bd 803d ff91 553b 15d5 933c
00000090: bdc4 b43d 55fb 573e cf15 463e dbed a1bd
000000a0: 3380 8dbe 4f38 c93c a467 dc3c 8521 45bd
000000b0: faaf 30be eaa1 cdbd 9754 0dbd 7df0 1d3e
000000c0: 5304 a23d a69d 6b3c 7ff9 46be 1d49 b9bd
000000d0: 0678 803d 837d 923e b582 5fbc db12 813d
000000e0: 71fa 0e3e 751b b0bd fdca 413c 6009 afbc
000000f0: ae96 503d 3976 3cbd ab5d 4c3d c556 09bc
00000100: 9c35 0c3e 56a8 073e a291 893e 11ac 5b3d
00000110: f268 c6be 8219 66bd 6a05 863b c4eb 6b3e
00000120: f761 32bd d115 3cbd da28 b1bd 0d5d 493e
00000130: fc1e 0abe 03ab 8ebd c9ba 003e b097 cb3d
00000140: aa61 06bd ab6c da3d 98fd a0be 1319 8fbe
00000150: 4302 3d3e 3e58 4bbd b13e 18bd 0c78 313e
00000160: 3e0c 8b3c 4a76 1ebe 9b2c 51bd 0b71 22bd
00000170: 304b 573d 89cb 293d a816 37bd 6e94 27bd
00000180: db86 4a3d 3622 233d 20bc 683c 8cac a5bd
00000190: 2941 2f3e c29a fb3c 2fe0 663d e59d 5b3d
000001a0: 5b9c ac3b de5b 22be 2d67 fcbc 836f d0bd
000001b0: 50b3 923d 6e69 1bbe 6ed5 d4be 0fa0 403e
000001c0: e0a8 6ebe 7985 533e dd37 893e 9935 873e
000001d0: 4827 a1bd f283 d33a c72d bcbd 393e a3bd
000001e0: 3362 90bd 4ac1 52bd a08a 90be f800 9dbd
000001f0: 0e77 92be c266 9bbd b044 6dbe a90c aebe
00000200: dfa8 17be dcec da3e 70db 57be 1d93 7d3e
00000210: 12bf 2f3e 97d6 debd c288 8dbd 6366 b03d
00000220: 85c3 5bbd 6eef aa3d 8f0d 503d 135b bfbe
00000230: d109 a4be 5c51 bf3d cdb5 043e 558b 273e
00000240: 162c 083e de74 863d 6252 22be 0d30 b2bb
00000250: b77e a9bd fb0f ffbd e286 babd 3940 30be
00000260: b4c5 093e 4528 27bd 1f83 2abe 0fd8 34be
00000270: 28da 38bc 1448 693c a2a9 9dbe 34e4 93be
00000280: 70b5 b83d 283f 38ba 64f3 6a3d 58b5 c8bd
00000290: 5226 9fbc 5629 f13e 4442 8a3e 038d 233e
000002a0: fb73 0e3f bd62 513e 6f41 d03d 0413 24be
000002b0: 37fb 62bd 5f9c 29bd fa1d bd3d fbc1 e83c
000002c0: cf85 be3d 1092 aa3d 9ecf 50be 24e9 1cbd
000002d0: 7d26 073e 4130 c33c 8829 453d 4bd9 d7bd
000002e0: d47a 41bd 75ba e1bd b995 5f3e 147d 843e
000002f0: 9b38 ad3d cfa7 243e 0e47 8abd 2f14 debd
00000300: 46ef 6a3a ba6c 33be aea1 69bd 4753 933d
00000310: 8d4e 80be b7eb 6e3d 9b9e 023c c86a fa3d
00000320: d6cf f43b cb29 e03d c3c4 373e 6470 6c3b
00000330: 0a36 4c3d da80 633d 0b03 c53d 08f7 0cbe
00000340: b3e5 a2bb f842 51bc 0a86 d9be 03d6 87be
00000350: 7882 edbd 02d5 103e d983 79be c545 7cbe
00000360: 02c2 583d 0e36 69be 6eda 5ebe 9d6a 6cbe
00000370: 7246 17be d2cf a3bd 86b5 b03d 9136 85be
00000380: 708f 18bd e109 ef3d 16d2 11be 7177 513e
00000390: 4724 8fbd cec4 9a3d 7e1e 0f3e f142 a43d
000003a0: a872 fb3d 7c40 043d 8d6c 91bd 6b45 debb
000003b0: ecc7 8fbd a2e6 193d cf31 9cbd d0f3 4a3d
000003c0: cb9f 8a3c 9b6c 9ebd 60ef 9fbc 58f4 10bb
000003d0: 4409 f43d dc74 1abe 5415 27be 266d febe
000003e0: 6346 8fbd 971c a0bd 1b6d 87be 9b6a 9e3d
000003f0: 1f8c 2a3e bc7b b23b e398 d5bd 5981 c23d

conv3.bias f4 [32]
-0.06646643 -0.15766111 -0.12341366 0.01566112 -0.0343277 -0.075336464 -0.16293664 -0.0961799
0.22772838 -0.13151093 0.15227503 -0.16601367 -0.07634841 -0.0009133076 -0.1404155 -0.12642899
-0.094714865 -0.034856576 0.047848076 -0.23516598 -0.04800485 -0.16471376 -0.1085705 0.14362861
-0.08074297 -0.052283753 -0.022509836 -0.02234489 -0.015706945 0.01264849 -0.0131379925 -0.12558824
00000000: 8d1f 88bd ea71 21be 4dc0 fcbd c04b 803c
00000010: 349b 0cbd 014a 9abd ddd8 26be f8f9 c4bd
00000020: a131 693e cdaa 06be fced 1b3e 7dff 29be
00000030: 8e5c 9cbd 096b 6fba 15c9 0fbe 9a76 01be
00000040: def9 c1bd c5c5 0ebd 58fc 433d 5acf 70be
00000050: bca0 44bd b9aa 28be 365a debd 6113 133e
00000060: 925c a5bd 7d27 56bd 8c66 b8bc a10c b7bc
00000070: daab 80bc 9d3b 4f3c bc40 57bc 349a 00be

fully_connected1.weight f4 [10, 288]
-0.06978763 -0.059316184 -0.04013519 0.1157276 0.061805625 0.10946245 0.09174881 -0.6423027
-0.04285545 -0.05526654 -0.13796951 -0.034678623 -0.03568237 0.2099719 0.0583392 0.03961777
0.17722706 -0.24950033 -0.06189864 -0.15245062 -0.031139126 -0.076115705 -0.113820225 -0.012431392
-0.15123814 0.20118645 -0.21153246 -0.09297481 0.063651666 0.049766112 0.13205542 0.043843795
0.29529968 0.0362248 -0.5662502 -0.12775166 -0.014558038 0.012750551 0.07822618 0.22235209
-0.1402703 0.095897816 0.31644502 -0.0014388211 0.04460554 -0.023564752 -0.16132206 -0.04546533
0.07671322 -0.020034226 0.14823312 0.04278818 0.018763103 -0.21762314 -0.052721743 0.21568905
-0.075600274 0.1246599 -0.072531946 0.2825055 -0.25074083 -0.19070524 0.22801015 -0.06123985
0.16810448 0.06742864 0.10031924 0.23359855 -0.1271182 -0.15936342 -0.27718124 0.05892749
-0.35723263 0.112561844 0.11992594 0.17335562 0.105628446 -0.22163193 -0.10168992 -0.043615427
0.29265982 0.097934306 -0.35467976 -0.2846814 -0.115186945 0.33988336 0.3968316 0.16554728
0.018086396 -0.29507288 -0.11777553 0.05624219 -0.018583495 -0.0049850717 0.027398078 -0.19255206
0.1394551 -0.20888688 0.26367828 0.10045575 -0.012063448 -0.17584929 0.25304163 0.24136955
-0.02166986 -0.09024684 0.003322454 0.18028095 -0.052701995 -0.14551589 -0.054844964 -0.028209122
0.1122623 -0.25554985 -0.03730407 0.08616786 -0.1691357 -0.038832955 0.0066491193 0.030050369
0.011549208 -0.09844024 -0.25465074 0.003866805 0.14888191 0.32894355 0.029395062 0.016755208
-0.0138691375 -0.019783858 -0.012308016 -0.40036783 0.026556885 0.1984969 0.12848903 -0.084199555
-0.041196506 -0.27505457 -0.0011881872 -0.042451534 0.16206254 -0.06918167 -0.18854384 0.008517065
-0.019934068 -0.019987397 0.096687526 0.12812223 0.27961785 -0.18594761 -0.0846072 -0.048364777
0.09511984 0.04397559 -0.017924387 -0.032986008 -0.041520387 0.036547717 -0.03709164 0.04985055
0.06900637 0.03409374 0.017389903 0.00065007317 0.07368738 -0.057760905 -0.032474913 0.072072856
0.027210778 -0.049058914 0.017223239 0.087288536 0.12584718 0.04981755 -0.26196945 -0.02385553
-0.14277597 -0.43929803 0.20124021 0.15295966 -0.09349298 -0.11001539 -0.046150025 0.0011225599
-0.106891304 -0.030969774 0.09224916 -0.14245245 -0.14829649 0.07738728 -0.20189404 -0.07634965
0.014577027 -0.036441952 -0.3094424 -0.15429233 0.62657464 -0.2516906 0.0650614 0.13999414
0.029989986 0.15494949 0.09296939 -0.20853432 0.03291121 -0.15603419 0.029059423 -0.092350915
-0.099182606 -0.1276084 -0.02866072 0.18132895 -0.031098068 -0.08652377 0.06114667 0.111072
0.09751295 0.21106413 0.031706814 -0.30742154 -0.14920326 -0.26720253 -0.32439277 0.15512405
0.34843567 0.0007817131 0.056011442 -0.0048314487 0.28714186 0.04465782 -0.15184653 0.5788705
-0.32300404 -0.071620904 -0.13950638 0.05546512 -0.031672668 -0.23140664 0.012712219 0.09217587
-0.10386724 0.50789404 -0.2263493 -0.08053166 -0.10186393 -0.12722158 -0.19169445 0.079448275
-0.19534643 -0.15433083 0.3617357 0.018016769 -0.006392325 -0.016952071 -0.10957475 0.021540532
00000000: d1ec 8ebd 87f5 72bd cc64 24bd 9802 ed3d
00000010: e527 7d3d d92d e03d cde6 bb3d f36d 24bf
00000020: 3289 2fbd 2b5f 62bd e147 0dbe 2c0b 0ebd
00000030: ad27 12bd e002 573e 16f5 6e3d 3e46 223d
00000040: 037b 353e 047d 7fbe 6e89 7dbd 041c 1cbe
00000050: 7b17 ffbc 8de2 9bbd 941a e9bd 0aad 4bbc
00000060: 2cde 1abe d203 4e3e f79b 58be 9469 bebd
00000070: ce5b 823d 8dd7 4b3d 8939 073e 8d95 333d
00000080: 8531 973e 7560 143d c6f5 10bf 55d1 02be
00000090: d684 6ebc b0e7 503c 0c35 a03d 44b0 633e
000000a0: 04a3 0fbe 1366 c43d 1505 a23e d396 bcba
000000b0: 4cb4 363d de0a c1bc 9c31 25be db39 3abd
000000c0: d21b 9d3d d11e a4bc 6cca 173e a942 2f3d
000000d0: 14b5 993c 9ad8 5ebe c1f2 57bd 97dd 5c3e
000000e0: 51d4 9abd b14d ff3d a18b 94bd 90a4 903e
000000f0: 1a61 80be 3c48 43be 7e7b 693e a3d6 7abd
00000100: 9523 2c3e 0718 8a3d 2c74 cd3d 7534 6f3e
00000110: 462b 02be 2a30 23be b3ea 8dbe f45d 713d
00000120: 32e7 b6be d386 e63d bb9b f53d 2384 313e
00000130: ba53 d83d 7bf3 62be ce42 d0bd 17a6 32bd
00000140: 82d7 953e c891 c83d 9698 b5be c3c1 91be
00000150: 22e7 ebbd 3105 ae3e 832d cb3e 3a85 293e
00000160: ec29 943c cb13 97be 4c34 f1bd 365e 663d
00000170: 6a3c 98bc d059 a3bb ef71 e03c 5e2c 45be
00000180: 51cd 0e3e 71e6 55be d700 873e bfbb cd3d
00000190: c5a5 45bc d611 34be ac8e 813e 9429 773e
000001a0: fe84 b1bc 56d3 b8bd 87bd 593b 929b 383e
000001b0: 0cde 57bd 1e02 15be 1da5 60bd d116 e7bc
000001c0: c7e9 e53d 6ed7 82be 27cc 18bd c678 b03d
000001d0: e931 2dbe 4e0f 1fbd dbe0 d93b 312c f63c
000001e0: e438 3d3c 099b c9bd 9561 82be 396a 7d3b
000001f0: 8074 183e 4a6b a83e eacd f03c 3842 893c
00000200: 613b 63bc c211 a2bc 90a7 49bc 03fd ccbe
00000210: d38d d93c c542 4b3e a192 033e d170 acbd
00000220: abbd 28bd f4d3 8cbe f2bc 9bba a9e1 2dbd
00000230: b9f3 253e 1faf 8dbd a311 41be 298b 0b3c
00000240: c54c a3bc 9cbc a3bc 1c04 c63d 7932 033e
00000250: 122a 8f3e 0d69 3ebe 8a46 adbd 251a 46bd
00000260: 31ce c23d c01f 343d 2ad6 92bc 561c 07bd
00000270: 4811 2abd 0fb3 153d 67ed 17bd 1730 4c3d
00000280: 3653 8d3d e1a5 0b3d 4575 8e3c ac69 2a3a
00000290: 69e9 963d b396 6cbd 6a04 05bd ef9a 933d
000002a0: 23e9 de3c 00f2 48bd c017 8d3c 55c4 b23d
000002b0: 15de 003e 7d0d 4c3d dc20 86be ac6c c3bc
000002c0: dd33 12be aceb e0be ea11 4e3e 75a1 1c3e
000002d0: 3f79 bfbd c04f e1bd cf07 3dbd dc22 933a
000002e0: d4e9 dabd 53b4 fdbc 21ed bc3d 0edf 11be
000002f0: 09db 17be 397d 9e3d 50bd 4ebe 355d 9cbd
00000300: 7cd4 6e3c 2844 15bd 3c6f 9ebe cffe 1dbe
00000310: 3267 203f 97dd 80be e93e 853d a05a 0f3e
00000320: 8fad f53c 14ab 1e3e bc66 be3d 058a 55be
00000330: e8cd 063d 6dc7 1fbe 070e ee3c 7a22 bdbd
00000340: 4020 cbbd c7ab 02be e3c9 eabc 4cae 393e
00000350: 60c1 febc 6033 b1bd ee74 7a3d b779 e33d
00000360: dfb4 c73d 3221 583e 01df 013d 5b66 9dbe
00000370: bdc8 18be c5ce 88be cf16 a6be d7d8 1e3e
00000380: 2966 b23e e1eb 4c3a 416c 653d 2151 9ebb
00000390: 4204 933e 1eeb 363d a87d 1bbe db30 143f
000003a0: c960 a5be fbad 92bd c3da 0ebe 652f 633d
000003b0: 33bb 01bd ddf5 6cbe e946 503c b4c6 bc3d
000003c0: 59b8 d4bd 5805 023f 1cc8 67be c8ed a4bd
000003d0: 099e d0bd 6046 02be 8d4b 44be c7b5 a23d
000003e0: e508 48be e708 1ebe 6c35 b93e e797 933c
000003f0: b576 d1bb 12df 8abc ba68 e0bd c575 b03c

fully_connected1.bias f4 [10]
-0.07195431 0.008843656 0.02165805 -0.029920345 -0.0022756653 0.041765515 -0.10795688 -0.028473128
0.23765162 0.024991158
00000000: c85c 93bd fbe4 103c 396c b13c 831b f5bc
00000010: 5423 15bb 5112 2b3d 7f18 ddbd 7a40 e9bc
00000020: f25a 733e 42ba cc3c
