saved_models/digit_recog_cnn.pt (torch, 415869 bytes, 8 tensors)

conv1.weight f4 [8, 1, 3, 3]
00000000: 220c b93b 5687 dcbe 9887 1c3f df06 f9be
00000010: 7004 28be 3f25 353f 5ab7 d2be 40f1 69be
00000020: 5455 413f 750d c13e 690d 303e 8956 f23e
00000030: 09fd 83bd e9c5 263d db76 053f 9cfd 4ebd
00000040: de7f 7c3e 0167 bd3e f78b 1f3f 4830 f13e
00000050: cf92 423e e979 fc3e f2e2 1d3e 1a3e dfbd
00000060: 2e94 1cbe be80 debc c2f6 49bf de6e 10be
00000070: e93c ee3e b832 fa3e c123 67bd 1025 443f
00000080: c1ab ac3e 9dc5 9abe b66a aebd 3631 3bbc
00000090: c1df ed3e 6f4b 043f 66aa 053e f3a4 dabe
000000a0: 28e2 e63e b268 323f 3f22 3ebf 715e 1dbf
000000b0: c22e f0be 0eab 4dbe 8247 d33e 9b8d fb3d
000000c0: d77f fe3e 8304 be3e e07b 953e 55a8 743e
000000d0: 2ca9 1e3e 0431 573e 1ce5 353d 1758 1c3e
000000e0: bddb a03c c36b ab3e 7cde 1a3f 135c d73d
000000f0: e5d3 3f3e 11ed f33e f430 973e 5532 4bbf
00000100: bd34 09bf ccd5 63bd b7c2 cfbe 0b81 b43e
00000110: e2fc 043f ec2c 903e 918a fa3e 5be4 b33e
0.0056471983 -0.43072003 0.611444 -0.48638055 -0.16407943 0.7075996 -0.4115551 -0.22845936
0.75520825 0.3770558 0.17192616 0.47331646 -0.06444747 0.040716086 0.52134484 -0.05053483
0.24658152 0.36992648 0.62322944 0.47107148 0.19001316 0.4931176 0.15418604 -0.10900517
-0.15290901 -0.027160998 -0.7889215 -0.14104792 0.46530846 0.4886682 -0.056430582 0.7661905
0.33724788 -0.30228892 -0.08516447 -0.011425307 0.46459773 0.516776 0.13053283 -0.4270397
0.4509442 0.69691 -0.74271005 -0.6147223 -0.46910673 -0.20084783 0.41265494 0.122828685
0.4970691 0.37112817 0.29196072 0.23892339 0.15494221 0.21014792 0.04440795 0.15267979
0.01963603 0.33480653 0.60495734 0.10515609 0.18733175 0.47641805 0.29529536 -0.79373676
-0.535961 -0.055623814 -0.40578243 0.35254702 0.5194837 0.28159273 0.48933843 0.3513516

conv1.bias f4 [8]
00000000: 70e6 e2be f6a1 103d 9c82 09bc e381 56bb
00000010: 0d93 93be 01f9 bbbb 22e3 0ebf 9e8a 2f3d
-0.44316435 0.035310708 -0.008392956 -0.0032731227 -0.28823128 -0.0057364707 -0.5581533 0.042856805

conv2.weight f4 [16, 8, 3, 3]
00000000: feb1 043c bbac ddbd 5a7c bebd 9541 cbbc
00000010: d9ea 3c3e ba0b 203d 1635 13be bd8a a43d
00000020: 6aa7 333e 2d5c 8c3e df95 aebe 89d6 c3be
00000030: 9911 743e 37e0 debe 4091 893e bc89 20be
00000040: 772d 23be 77fa 4b3e 613a 983c 3040 a0bd
00000050: ebb4 b6be 6ae6 743e 60a7 7b3d 5920 c6be
00000060: 6d4f 473e 3ade 5cbe 8af1 a2bd 9f21 9e3d
00000070: ea32 81be 6e62 a5be 7a92 9d3e 8e02 eabe
00000080: 7352 023d 8042 cbbd f379 bdbe a07d 833e
00000090: 22c2 cabd ef34 1fbe 1de5 bebd aa0f 9dbd
000000a0: ee13 b7bd b8a4 0bbe b32b 8cbd 63c2 e9bd
000000b0: 1b6e b8be e5bf 463d a192 71be d060 adbe
000000c0: a3bb ab3e 4b56 b9be 123e 453e 89bd 7abd
000000d0: 2d3e d4be c23f 583e 41cb 563e 217f abbd
000000e0: 74b9 b1be c64c 883e 6c2f 98be dafa 0b3d
000000f0: a70d 31be 05db a2be 95de 643e bb80 62be
00000100: d22a 05bf fdd1 af3d 5797 7a3e 7d8b d3be
00000110: 47b0 7e3e 8c2b 01be 1f21 49bd 6824 a13d
00000120: 6dbb 49bd c064 083d 2db9 b33d 3692 7e3e
00000130: cf9a de3d b75e 68be bae6 adbd 05b5 123d
00000140: 9433 d4bc 2516 913d 4109 04be 4f1c a0be
00000150: a724 e33d d7fa 203f db48 bebe f24a 05bf
00000160: 4157 f93d 91e8 943e f3c4 73bc e8d5 bf3d
00000170: bd6b 5cbd 8bea de3c b781 b23d 7a47 06bc
00000180: 65f7 00be eb0e 0ebb 7714 253e 003d 213d
00000190: 1559 3bbe ab4b 58be 4daa e93d 6d71 ae3e
000001a0: 60c1 b9be 72d5 7dbe 21f3 733e 236a 0c3e
000001b0: 5d70 ab3d 7cec 3dbe c84d b43c 523e 153e
000001c0: fc71 fb3d 59ff 0abe f56d 343d 091e e03d
000001d0: 37e8 90bc 951c 083e ae0d c0ba b2a5 f6be
000001e0: d26c 1dbe 5774 143f 18b5 14be b2aa c2be
000001f0: 536c 013d cdbe c33d f102 d93d 8075 fc3d
00000200: 4d88 11bf 5d3b 78be 0697 243f 480d 20bb
00000210: 1ddc 74be 9d37 57be 99f4 653e dd8a 6fbd
00000220: 31e0 233e e528 bdbd 533b 0abd c59f d1bd
00000230: 9505 843e 3c64 e73d 7975 39be 7718 c9bc
00000240: ef0c 633e a885 87bd 8b8a a6bc e626 d63e
00000250: 0b41 163c 67dd e538 1f2f acbe c971 5abe
00000260: 58fb 6abd b1be 41be 1316 933e 7119 49bd
00000270: 659d 0e3e ed42 423e 65a2 b0be 72ca 0fbd
00000280: 4bd7 813c 6d13 95bd cdf2 3f3c 2dcf 073d
00000290: 7a0d 85bc 54ce b8be 20d6 753e c3d4 b3bd
000002a0: e650 663d 213b 1b3e e4f8 50be a7a1 debd
000002b0: a850 0c3e 0a77 b1bd 03f9 a2bd 9c08 b33e
000002c0: 2153 d3be 7a37 063e 5407 19be db53 d0bd
000002d0: 4ce7 123e dec1 94bd 695d 9abd 536d 31be
000002e0: 139e 3a3d de84 30be 0697 1abe bd7e 8a3d
000002f0: 34d7 20be 7b17 79be 0ed7 863e 4991 34be
00000300: bb04 95be d147 013f b769 adbe ebdd 413e
00000310: 416c 52be 14a5 f2bc 5e56 91be 512a 993e
00000320: 96ef 23be 2a20 01be 8e84 b53e 9ddd aabe
00000330: c595 b73d 89b0 89be 70b0 6bbd bb65 9f3d
00000340: 3d9e 9bbc ef1a 0cbf 2877 e13e e897 373c
00000350: afa0 2fbf 5f17 acbb b3b2 bdbd 0651 43be
00000360: f93e 1e3e 59ff 423d 23e3 b73b 983f a43d
00000370: f17a 2f3e 4d09 42bd bd74 d0be 1a56 a7be
00000380: 9d09 97bc 1f24 20be 9bbd 95be 9921 94bd
00000390: 673f d43e 6ed9 043f 3554 9d3e 07d3 ecbe
000003a0: 77e2 7fbe 5188 79be 32dc df3d 0cea c73c
000003b0: 4fa4 c4be 10ad 473b a271 a43e 636f 813e
000003c0: f396 dabe e3a3 a9bc 2dcf e2bd 8455 133d
000003d0: baaf f2bd 9c92 17bd 186f 1e3e b6b5 c53e
000003e0: 18cc 613e 0793 fdbe 3168 e7bd 9049 9abe
000003f0: c2dc 8d3c f662 ac3d 631e ca3d 1720 cf3d
0.008099077 -0.10823961 -0.09301062 -0.024811545 0.18448962 0.039073683 -0.1437572 0.08034275
0.17544332 0.27414075 -0.34098718 -0.38249615 0.23834838 -0.43530437 0.2686863 -0.15677541
-0.15935312 0.19919764 0.018582525 -0.07824743 -0.35684904 0.23916021 0.061438918 -0.38696554
0.19463892 -0.21569148 -0.07956226 0.077212565 -0.25234157 -0.32301658 0.30775815 -0.45705074
0.03181691 -0.09924793 -0.37007102 0.25681782 -0.09900309 -0.15547536 -0.09321044 -0.07669003
-0.08939348 -0.13637054 -0.068442725 -0.114140294 -0.36021504 0.04852285 -0.2359109 -0.33862925
0.33541593 -0.3619865 0.19261959 -0.06121591 -0.41453686 0.21118072 0.20975973 -0.08373857
-0.34711802 0.26621073 -0.2972368 0.034174778 -0.17290364 -0.31807724 0.22350533 -0.2211942
-0.52018464 0.08584974 0.24471794 -0.4131736 0.24871932 -0.12614268 -0.049103852 0.07868272
-0.04925101 0.033299208 0.08775554 0.24860463 0.10869371 -0.22692381 -0.08491273 0.035817165
-0.0259035 0.07084302 -0.12894155 -0.31271598 0.11090975 0.6288275 -0.3716496 -0.5206748
0.121748455 0.29083684 -0.014878499 0.09366971 -0.053813685 0.027211448 0.087161474 -0.008195752
-0.12594374 -0.0021676372 0.16121088 0.039364815 -0.18295701 -0.21122615 0.114094354 0.34070912
-0.36280346 -0.24788454 0.23823215 0.13712363 0.08371041 -0.18547243 0.022009745 0.14574555
0.122776 -0.1357397 0.044050176 0.10943229 -0.017688854 0.13292153 -0.0014652514 -0.4817329
-0.15373543 0.5799002 -0.14522207 -0.38020855 0.031597447 0.09557877 0.10596264 0.12327099
-0.56848603 -0.24241395 0.64292943 -0.0024421979 -0.23912092 -0.21017309 0.22456588 -0.05848204
0.16003491 -0.09236316 -0.033747982 -0.10235552 0.2578551 0.11298415 -0.18111219 -0.024547799
0.22172903 -0.0661729 -0.020329734 0.41826552 0.009170781 0.0001096081 -0.336297 -0.21332468
-0.057368606 -0.18920399 0.2872778 -0.04909653 0.13927229 0.18970843 -0.34498897 -0.035105176
0.01584973 -0.07279096 0.011715603 0.033156563 -0.016241778 -0.36094916 0.24007463 -0.087808155
0.056229495 0.15159275 -0.20407444 -0.108706765 0.13702643 -0.08665283 -0.079576515 0.34967506
-0.4127436 0.131071 -0.14944202 -0.10172244 0.14346045 -0.0726354 -0.07537348 -0.1732686
0.045560908 -0.17238185 -0.15096673 0.06762455 -0.15707093 -0.24325363 0.2633595 -0.17633547
-0.29105172 0.5050021 -0.33869717 0.18932311 -0.20549108 -0.029619731 -0.28386205 0.29915097
-0.16009364 -0.12609926 0.35452694 -0.33372203 0.08964113 -0.26892498 -0.05754131 0.077830754
-0.018996352 -0.547286 0.44036222 0.011205651 -0.6860456 -0.0052518095 -0.092626 -0.19073877
0.1545371 0.0476068 0.0056117936 0.08019942 0.17136742 -0.04737215 -0.40714064 -0.32682878
-0.018437201 -0.15638779 -0.2924622 -0.07232971 0.41454622 0.5189427 0.30728307 -0.4625475
-0.24988733 -0.24368407 0.10930671 0.024403594 -0.38406608 0.0030468144 0.32117945 0.25280294
-0.4269329 -0.02070803 -0.11074672 0.035970226 -0.118499234 -0.037005052 0.15472066 0.38615197
0.22050512 -0.49526235 -0.1129917 -0.3013425 0.01731718 0.08417313 0.09869077 0.101135425

conv2.bias f4 [16]
00000000: ddc9 a93d b8ee 0fbf fcac 11be 89f5 91bc
00000010: 1bc0 28bc 61a5 f8bc 4a30 053e a172 4ebc
00000020: 7f1d 00bd bc6a d3be 74e2 4b3d bce0 1abe
00000030: e8a3 b9be a8b8 c63b dec4 3bbd 1825 cb3d
0.082904555 -0.5622363 -0.14226145 -0.017817276 -0.010299708 -0.030352296 0.13006702 -0.012600572
-0.03127813 -0.4129237 0.04977651 -0.15124792 -0.36257863 0.006064493 -0.045842044 0.099191844

fully_connected1.weight f4 [128, 784]
00000000: d826 1a3d f080 883a 2486 623d a01b 7c3d
00000010: f35a 403d 8e56 ce3c 94f0 7b3b 4dc0 1bbb
00000020: eaf2 a03d 539d 6a3d 78cb 953d b902 a8bc
00000030: 19a0 4dbd 0f5d 96bb 981b 223d f647 223d
00000040: 507c 62bd 89ca 85bc 49c0 dabc 67a7 50bd
00000050: 179a 88bb eedb 65bd ff9a 6dbd eef9 8b3c
00000060: 79d0 49bc 442a 46bd 87c5 cfbd 7024 babc
00000070: 1d82 35bd 30c8 933c 6dbd debc 91c8 b03d
00000080: 2538 83bc a961 00bb 1a4f 92bc 9833 2db9
00000090: 1035 9cbc 3f21 12bd c2fd 553d 000c c73d
000000a0: bdaf 0d3d 6daf cabb e475 a9bc 8689 ad3b
000000b0: dd3b 28bd 29c3 023c 1129 5a3d 39e0 483d
000000c0: 2501 31bc 5e39 94bc 8686 68bb 0d66 be3c
000000d0: c03b ecba 8eff 063d 4420 473d 811f 1a3d
000000e0: 4f69 98bb 46ab f7bd d1f1 a0bd c7a7 d8bc
000000f0: 3589 1f3b c0f3 35bd 561d f83c f6e8 07bd
00000100: b1d2 b93c d957 99bd c004 f33d 85a6 b0bd
00000110: 7eff 533d 0384 0bbc 9cef 0f3c 1d2b 53bd
00000120: b046 253e 9781 5a3d f7ba ecba 8de9 11bc
00000130: b07e 583c 4399 08bc 3014 16be db84 14bd
00000140: 43b2 d13d 5f93 3b3d d72c aebc 4ee5 6b3c
00000150: 3488 463c 6e76 f1bd f5ca 9abb 5514 c83c
00000160: bf0d d1bd 869c cebc b4c2 8ebb b7d1 853c
00000170: c712 06bc 6338 b9bc 3563 c7bd 1e7c 17bd
00000180: ff1a 113d b01f 10bd a5f3 423c 49f0 f1bb
00000190: eaaa 8abb 81a0 793d 4f18 223d 842f fc3c
000001a0: 1fd0 cf3c 887c cc3c 15d0 b03c 938a 4d3d
000001b0: ef05 8e3d a59f edbc 2490 99bd 19eb 043c
000001c0: 8376 083d 9032 993b 47c9 4a3d b959 213c
000001d0: 6f13 e1bd 04b8 2b3d b5a2 8d3d cebc 843c
000001e0: 116d 153d e38c 953c 17a2 cf3d a877 633b
000001f0: 203d 953d e80a 093d 8bce 773c 06b8 be3c
00000200: c7c7 0b3e 4404 49bd 2e59 01bc 129c 5bbd
00000210: bfd9 053c 97c2 013d 1406 7c3c a2b4 ea3c
00000220: 00bf 273d 8ffa 003b af0d fc3c 8874 d03c
00000230: 7558 963c 40cd 22bd ef75 90bc 4392 bfbd
00000240: 23cd 003d aab5 88bc b143 1a3c e0bd a1bc
00000250: 4fc9 983b 74e1 c43b 6212 84bb 7e21 4a3c
00000260: 4486 223b 0a42 10bc 4970 efbb ebea a63c
00000270: c92f 22be 1dfa 83bd 6869 043a a41c babb
00000280: 346b f93c 0dcd 65bd b78d 0abe c4b0 5cbe
00000290: dc76 663c 8adf f53d 4f00 cc3b c71b ab3b
000002a0: fa8a a6bc 4ea3 ecbd 060d 82be a93f 3abe
000002b0: 34cb b83d ee01 583a d1f2 f93b 78b0 68bc
000002c0: bb52 a6bd aad3 71be 453b 13be 41e2 08bd
000002d0: 8ce3 9cbd 9ae4 af3c 5a8e b4bb bb31 70bd
000002e0: 8c46 e3bc bd93 f53d 0bde 4a3c f469 f43c
000002f0: c8fc b7bc 70ce 8f3c cc72 1abd 95f2 a13d
00000300: 1463 303e 2865 073e d57e a33c cb0e 13bb
00000310: cdb1 d53c 660f 99bc c861 773d 2aff 25bc
00000320: b5e4 d73c 2f45 f23c d149 e6bc ab9f 84bd
00000330: e733 12bd c77a 31bd 799a 1a3d 0a63 193d
00000340: ffc8 85bc dd08 e03c fa42 f0bc 33f4 0d3d
00000350: 02dc 3bbd 593f 5bbd 5e02 2e3d a837 263d
00000360: 0b0e f2bc ab72 4bbc 8dae b43b 111a 58bd
00000370: 4219 67bd f981 553d 0a2d c83c ac77 103c
00000380: 47ed 91ba eee3 3c3d 8ccb df3d 8b81 c2bd
00000390: 6972 943a 4dcb b33c aaae fd3c a2e9 6bbb
000003a0: b722 41bd 9641 bbbd 2b01 d0bd 2d0d 2bbd
000003b0: 1bf6 c93a 2ed2 ecbc 1cd5 1cbd 2abd 15bd
000003c0: 0ad9 10bd 5d76 67bd 59e9 043c 3d13 09bd
000003d0: 7cd2 04bb e297 253c ad59 423d f661 943d
000003e0: 5990 023d c14a 483c c2d2 c83c e21f 88ba
000003f0: c876 a2bc d70a 62bd 4b60 b0b9 e4d0 96ba
0.0376347 0.0010414403 0.055303708 0.061549783 0.046961736 0.025187757 0.0038442956 -0.0023765743
0.07858832 0.057278942 0.07314199 -0.02050911 -0.05020151 -0.00458873 0.039577097 0.03961941
-0.055294335 -0.016331928 -0.026703017 -0.050940897 -0.0041687596 -0.056117944 -0.058009144 0.01708695
-0.01231777 -0.04838015 -0.10145097 -0.022722453 -0.04431354 0.018039793 -0.027189935 0.08632005
-0.016017983 -0.001958946 -0.017859984 -0.00016517786 -0.01906827 -0.035676237 0.052243955 0.09719086
0.034591425 -0.006185463 -0.020686097 0.005295935 -0.041072715 0.0079811 0.05326182 0.04904196
-0.0108034955 -0.018093761 -0.0035480573 0.023242021 -0.0018023178 0.03295856 0.048614755 0.0376277
-0.0046512256 -0.12093215 -0.07858623 -0.02644719 0.0024343256 -0.04442191 0.030287426 -0.033181153
0.022683473 -0.07487459 0.1186614 -0.08625511 0.05175733 -0.008515361 0.008785155 -0.051554788
0.16140246 0.053346243 -0.0018061091 -0.0089057805 0.013213798 -0.008337322 -0.14656138 -0.036259513
0.10239079 0.04579484 -0.021261616 0.014397932 0.012117434 -0.11790167 -0.0047239014 0.024423758
-0.102077 -0.02522112 -0.0043567065 0.016335351 -0.008183188 -0.022609895 -0.09735719 -0.0369836
0.035426136 -0.03518647 0.01189891 -0.0073833806 -0.0042318003 0.060944084 0.039573964 0.030784376
0.025367795 0.024961725 0.021583596 0.050180983 0.069347255 -0.029006789 -0.07498196 0.008112692
0.033316147 0.004675217 0.04950836 0.009848052 -0.10990035 0.041923538 0.069157995 0.01620331
0.036480967 0.018255657 0.10138338 0.0034708772 0.07287049 0.033457667 0.015124927 0.023281109
0.13650428 -0.049076334 -0.007894797 -0.053615637 0.0081695905 0.031679716 0.0153823085 0.028650586
0.040953636 0.0019680595 0.030768244 0.025446191 0.018352726 -0.039746523 -0.01763436 -0.09354069
0.031445634 -0.016688187 0.009415553 -0.01974386 0.0046626697 0.0060083214 -0.0040305117 0.012337087
0.0024799267 -0.008804807 -0.0073070866 0.02037569 -0.15838541 -0.0644419 0.0005051107 -0.0056796838
0.030446626 -0.056103755 -0.13530622 -0.21551806 0.014066424 0.12005527 0.0062256227 0.005221817
-0.020329941 -0.115545854 -0.2540056 -0.18188347 0.09023133 0.00082400336 0.007627823 -0.01420223
-0.08121248 -0.236159 -0.14378078 -0.033418898 -0.076605886 0.02147131 -0.0055101337 -0.058641177
-0.0277436 0.119910695 0.012382041 0.029835679 -0.022459403 0.017554492 -0.037707135 0.07907597
0.17225295 0.13222182 0.01995794 -0.0022439237 0.026085759 -0.0186841 0.060395986 -0.010131637
0.026354173 0.029574005 -0.02811137 -0.06475767 -0.03569403 -0.04332998 0.037744973 0.037447967
-0.016331194 0.027347976 -0.029328812 0.034656715 -0.045864113 -0.05352721 0.042482726 0.04058042
-0.029547712 -0.012417476 0.005513972 -0.052759234 -0.056420572 0.052125905 0.024435539 0.0088175945
-0.0011133336 0.04611581 0.10927495 -0.094973646 0.0011325601 0.021947527 0.030967075 -0.003599741
-0.047152247 -0.09143369 -0.10156473 -0.041760612 0.0015408428 -0.028908815 -0.038289174 -0.036557354
-0.035363235 -0.056509364 0.008112275 -0.033465613 -0.002026706 0.010107012 0.047448803 0.07245247
0.031875942 0.012224854 0.02451456 -0.0010385478 -0.01983203 -0.05518612 -0.0003364108 -0.0011506346

fully_connected1.bias f4 [128]
00000000: 2279 433e 2fe2 b23d e133 733e 566a 183e
00000010: e69c 9b3d ea36 2b3e 9234 a23d 3d33 a53d
00000020: 6bc5 2d3e 0f51 243e 0529 523e fee1 273e
00000030: ac49 223d cc91 d03d 90b1 e23d 1879 3a3e
00000040: 0d7d e53d 2e48 e33d 2754 473e c3f0 243e
00000050: e321 603e 0d19 453e 7b36 063e 61e1 943e
00000060: f80b 743e f4b6 fe3d 6c2a a83d 7f27 953e
00000070: 7d1f e03d 4f59 2c3e ca12 d73d 548d 633e
00000080: 1d07 db3d 6c67 c73c 58ed 7f3e 7981 413e
00000090: 768c 223e a34d 443e 6661 773e ce1d b83d
000000a0: ae86 fb3d 4572 303e 9fce 2b3e acab c73d
000000b0: 948c ca3d b2b3 a13d df5b ef3d 33e6 ae3d
000000c0: 8070 283e 431d 3f3e a70b 313e 2d63 413e
000000d0: 0afc 843e ceea 613e c2b5 1d3e 89a6 623e
000000e0: e5fe 3e3e b72f 743e e96c ec3d 447f 483e
000000f0: 9040 3f3e ee58 3f3e 529c 243d c16a 4a3e
00000100: 91e4 d23d ea6e 053e 6fc1 5c3e 6bd1 cd3d
00000110: d8cd 623e da3e 833e f5a2 5d3e 4259 973d
00000120: f8bb 503e e545 f83d 3d5c 863e be42 873e
00000130: ed03 573e 0649 823e 33af 373e 44db 0f3e
00000140: 9d5d c53d 28fa 8c3e 69aa 9a3d 3bdd e03d
00000150: 8b7c 103d 4948 103e b0e2 3a3e ab10 eb3d
00000160: a0d1 253e 926d 713d 5440 3b3e dd13 953e
00000170: 1543 583e ba4d d73d a25a 453e 3319 1d3e
00000180: cdc7 663e 19f0 f8bb 9205 2c3e 7655 f43d
00000190: 5c56 1e3e bc2d 1b3e 243a cb3d ddf3 0d3e
000001a0: 43b8 fe3d 6a45 683e 8373 153e 3815 823d
000001b0: b0b1 c13d 875b ab3e b8d6 643e 4d8e 003e
000001c0: 684d 593e b0ef 7e3e 128c bd3c cf97 6d3d
000001d0: 34f7 283e c4bc 493e 6a6f 243e 99d0 733d
000001e0: 3b90 873d 374d 143e 2a51 133e 56c7 1a3e
000001f0: 9d17 023e 269d 023d ee41 3abd e21b b83d
0.19089177 0.08734547 0.23750259 0.14884314 0.075982854 0.16720167 0.07920183 0.080664136
0.1696984 0.16046546 0.2052346 0.16394803 0.03962104 0.101840585 0.110690236 0.18210256
0.11205492 0.110977516 0.19465695 0.16107468 0.21887927 0.19247837 0.1310672 0.290782
0.2383269 0.12437239 0.08211216 0.29131696 0.10943506 0.16830944 0.105016306 0.22221881
0.10694716 0.024341308 0.24992883 0.18897046 0.15873894 0.19170241 0.24158248 0.0899006
0.122815475 0.1723109 0.16778038 0.09749541 0.098900944 0.07895602 0.11687445 0.08540001
0.16449165 0.18663506 0.17289601 0.18885489 0.2597354 0.22062227 0.15401366 0.2213384
0.18651922 0.23846327 0.115442105 0.19579798 0.18676972 0.18686268 0.04018814 0.19767286
0.10297502 0.13030592 0.21558164 0.10049709 0.22148836 0.2563389 0.21644194 0.073900715
0.20384204 0.12122706 0.26242247 0.26418108 0.20997591 0.25446337 0.17937927 0.14048487
0.09636996 0.27534604 0.075520344 0.10979696 0.035275023 0.14090075 0.18250537 0.114777885
0.16193247 0.058942385 0.18286258 0.29116717 0.2111934 0.10512872 0.19272855 0.15341644
0.22537155 -0.0075969812 0.16799 0.11930363 0.15462631 0.15154165 0.09923199 0.13862558
0.12437489 0.2268273 0.14594845 0.063517034 0.09457719 0.33468267 0.22347534 0.12554283
0.21220934 0.24896121 0.02313808 0.058006104 0.1650055 0.19700915 0.16058126 0.059525106
0.06619307 0.1448258 0.1438643 0.15115103 0.1270432 0.03188815 -0.04547303 0.08989693

fully_connected2.weight f4 [10, 128]
00000000: 067b 9f3e 206d 763e 3ec0 d53e 724f e8bd
00000010: 488f 113d f4a4 3abe 3bab 55be 1f46 533e
00000020: 2d51 353e ecbd 923e a2fa a33e 741d 613e
00000030: f6dd 96be 25bf d9bb 83f0 26bc 6563 883e
00000040: 5477 823e 3dc3 403e 1262 c23e 28a8 41be
00000050: e34b 043e b655 193e fbe8 8fbd 9ec9 48be
00000060: 5dc4 97be b56b b1bd 520b 25be bced 09be
00000070: 1cd6 05bb e2ba 02be 3001 babe d0cd 48be
00000080: 582b 19be fc46 54bc cb90 69be 3a4f 5bbd
00000090: 3fb7 29be f6c9 403e cd87 74be 1bf5 c03d
000000a0: 507a 3ebe 24a6 013e 0b72 a53d d1c8 adbe
000000b0: e8bb dcbd 3421 2e3e 4dbc 5fbe 33c4 eabd
000000c0: c2be ebbb b67d 4dbe ef41 5f3e 24ae c9be
000000d0: 4739 2f3e 080d 9bbe 8495 a23e 22ed 823e
000000e0: c5bb 8bbe 4fc3 a6be 4a78 67be 1e6c 58be
000000f0: 6df9 acbe dc73 06be 7bbf aebe a169 833e
00000100: 5202 91be e532 b0bd df3e c8bd fe24 e9be
00000110: b8c0 b4be 0297 b9be 85dc 94be 3f83 b23d
00000120: b6e6 7a3e d51f 483e 03a8 b13e c090 0bbe
00000130: bad6 c1bd dc08 61be 5d2e 273e 419f 04bd
00000140: 7a7d 81be 0df1 753e c7f9 353d 0e3d 843e
00000150: 5d53 a33d 010b b23e 016b 433d ec59 4c3d
00000160: 0c6b 133e 183a 533e afe3 aabd 8592 5e3e
00000170: 83b8 5f3e 4a99 5d3e 62d1 343e 5ec5 13be
00000180: a833 09be 9326 84be 511b a1be 2a3d babe
00000190: 58c2 5f3e faf2 993e 95f3 60be f05c 38be
000001a0: 8f74 603e 9b0c 22be 2497 543e 7aaa 5c3d
000001b0: a814 873e 90de e8bc 5f51 c4bd 984b 423d
000001c0: b959 35be 2306 983e c9e9 02be 4171 20bd
000001d0: 23c7 a73e ff5f c9be 1e77 e33e 6c95 dcbd
000001e0: 0faa 23be dc64 6ebe 6660 76bd da1f 633e
000001f0: f825 2dbe c831 cbbd 8a64 2dbe 5732 8ebe
00000200: 4549 663e 2a82 98bd 8ee5 a93e 7da1 bdbe
00000210: df4f b5bd 9adb 8e3e 3c38 4cbe c722 bdbe
00000220: 400b 62be 7483 80be 16d1 1fbc 162e 4cbe
00000230: 6140 c63d 9b59 64bd 2b81 27be 627d 463e
00000240: 7a69 18be c4a9 e63d 1a9a bdbd c5f1 793e
00000250: 21b3 37be 9b20 ad3e 2528 7f3d 2dd9 ae3c
00000260: 0924 ab3e ba36 d93e 2561 063e 80ad 4dbe
00000270: 2918 a0bd 0edb da3e b422 91be 317b 733e
00000280: 7e78 443e 10fc 593e cfcc a53d 4aee 803e
00000290: 656a 693e cd31 8abe dd49 753e 4d8d 74be
000002a0: af1e 08be 4f53 93be d42f 96be 995e b9be
000002b0: 3e31 c7be 5776 82bd 4a9a 303d ce44 97be
000002c0: 5eac ef3d d5fd dcbd 1774 8e3e 2798 643e
000002d0: c6e4 4ebe 17fd 733e 781d 65be 51ee aebe
000002e0: 43a3 023e 6af4 563e d295 ee3d d108 d03e
000002f0: 244a 3a3e 9edc 08be 7a7a bdbe 67a1 37be
00000300: a724 223e b7c6 58bd 60f8 d53e bdd6 30be
00000310: 57b8 793e ae7e 983e d210 16be e298 a2be
00000320: d3b4 7abe ca00 483e 3bec 883d e191 ae3e
00000330: 447f 96bd 1c49 4c3e 6203 51be c2a0 acbe
00000340: 0a70 76bd c452 6f3e 454d acbe 1412 5cbd
00000350: 63a5 d83d 1c0a 14be 1123 a93e 2dc8 79be
00000360: ae63 53be 2328 efbd 3302 773e 4b7c 463e
00000370: 9d52 c8be 2530 a4be d662 b7be 3b1a 153e
00000380: 11e5 45be afc3 413d 9296 6c3e 33bf 443e
00000390: 8e33 2abe ab6d 83bb 5224 743e 8911 743e
000003a0: 19e3 22be 1b03 cc3e e1df 9bbe bda0 e0bd
000003b0: b92d 48be c547 9f3e 77a5 b13e c456 3abe
000003c0: 9dab 883e 190f 3f3e e269 92be 4e30 c5bd
000003d0: 1d93 55be 7acf 0f3e f2a2 773d 4615 0cbd
000003e0: 1bb6 a3be 04cf 94be 8341 c8bd 18db 9bbe
000003f0: d3ff 383e e769 7dbe e2de c8bd 807d a43e
0.31148547 0.24065065 0.41748232 -0.11343278 0.035537034 -0.18226987 -0.208661 0.20632218
0.17706747 0.28660524 0.32027155 0.21983892 -0.29466218 -0.0066451007 -0.010189178 0.26638332
0.25481665 0.18824477 0.37965447 -0.18911803 0.12919573 0.14974102 -0.070268594 -0.19608161
-0.29642 -0.086631216 -0.161176 -0.13469595 -0.0020421809 -0.12766603 -0.3632903 -0.19609761
-0.1495794 -0.012956377 -0.2280914 -0.053542353 -0.16573809 0.18827042 -0.23879929 0.0942175
-0.18601346 0.12661034 0.080783926 -0.33942273 -0.10778028 0.17004853 -0.21849175 -0.11463203
-0.007194371 -0.20067486 0.21802495 -0.3939067 0.17111693 -0.3028338 0.31754696 0.25571543
-0.27291694 -0.32570884 -0.2260448 -0.21134993 -0.33784047 -0.13130134 -0.34130463 0.25666526
-0.28322083 -0.08603457 -0.09777617 -0.45536035 -0.35303283 -0.36248022 -0.29074493 0.087164395
0.24502072 0.19543393 0.34698495 -0.13629436 -0.09464784 -0.21976036 0.1632628 -0.03237844
-0.25291044 0.24017735 0.04442766 0.2582783 0.07974885 0.3477402 0.04770947 0.049890444
0.14396304 0.2062763 -0.083442084 0.2173558 0.2184773 0.21640506 0.17657998 -0.14430758
-0.13398612 -0.2581068 -0.31466153 -0.3637479 0.2185148 0.3006819 -0.21967919 -0.18004203
0.21919464 -0.15825121 0.2076078 0.053873517 0.26382947 -0.028426439 -0.09585833 0.047435373
-0.17710008 0.29692182 -0.12784494 -0.039170507 0.32769117 -0.39331052 0.44426817 -0.107706875
-0.15982841 -0.23280662 -0.060150526 0.22180119 -0.16909015 -0.099216044 -0.16932884 -0.2777278
0.22488888 -0.07446702 0.3318295 -0.37037268 -0.08853125 0.27901918 -0.19943327 -0.36940596
-0.22074604 -0.2510029 -0.00975444 -0.19939455 0.09680248 -0.055749517 -0.16357867 0.19383767
-0.14883986 0.11262849 -0.09257908 0.24408634 -0.17939426 0.33813938 0.062294144 0.021343792
0.3342593 0.42424566 0.13122995 -0.20085716 -0.07817108 0.4274525 -0.2834679 0.23777463
0.19186589 0.2128756 0.08095705 0.251818 0.22794493 -0.2699112 0.23953958 -0.23882027
-0.13292955 -0.28774497 -0.29333365 -0.36204985 -0.38904756 -0.06370228 0.04311589 -0.2954468
0.11702798 -0.10790602 0.27822945 0.22323667 -0.20204458 0.23827015 -0.22374523 -0.34166196
0.12757592 0.20991674 0.1164967 0.40631726 0.18192345 -0.13365409 -0.37007505 -0.17932664
0.15834294 -0.052923884 0.41791058 -0.17269416 0.24386726 0.2978415 -0.14654854 -0.31757265
-0.24483041 0.19531551 0.066856824 0.34095672 -0.07348493 0.19949764 -0.20411447 -0.33716398
-0.060165443 0.23371416 -0.33652702 -0.05372818 0.1057842 -0.14456981 0.33034566 -0.24392767
-0.20643494 -0.11677577 0.24121933 0.19383352 -0.3912553 -0.3206798 -0.35817593 0.14560787
-0.19325663 0.04730576 0.23104313 0.19213562 -0.16621229 -0.004010876 0.2384198 0.23834814
-0.15906943 0.3984612 -0.30444244 -0.109681584 -0.19548692 0.31109443 0.34696552 -0.18197161
0.2669343 0.18658103 -0.28596407 -0.09628354 -0.208569 0.1404399 0.06045813 -0.034199975
-0.31974873 -0.2906419 -0.0977812 -0.30440593 0.18066339 -0.2474743 -0.098081365 0.32127

fully_connected2.bias f4 [10]
00000000: 9c01 303e 1f93 e43e a6fd fa3c f3fc a63d
00000010: 0ade 393d e201 9bbe cc13 e1be df3b 813d
00000020: 164b 09bc 086c 1dbe
0.17188114 0.44643494 0.030638527 0.08153715 0.04537777 -0.30274874 -0.43960416 0.06310248
-0.008379718 -0.15373242
